=> loading checkpoint 'checkpoint.pth.tar'
=> loaded checkpoint 'checkpoint.pth.tar' (epoch 3)
AlexNet (
  (features): DataParallel (
    (module): Sequential (
      (0): Conv2d(3, 96, kernel_size=(11, 11), stride=(4, 4))
      (1): BatchNorm2d(96, eps=0.0001, momentum=0.1, affine=False)
      (2): ReLU (inplace)
      (3): MaxPool2d (size=(3, 3), stride=(2, 2), dilation=(1, 1))
      (4): BinConv2d (
        (bn): BatchNorm2d(96, eps=0.0001, momentum=0.1, affine=False)
        (conv): Conv2d(96, 256, kernel_size=(5, 5), stride=(1, 1), padding=(2, 2), groups=2)
        (relu): ReLU (inplace)
      )
      (5): MaxPool2d (size=(3, 3), stride=(2, 2), dilation=(1, 1))
      (6): BinConv2d (
        (bn): BatchNorm2d(256, eps=0.0001, momentum=0.1, affine=False)
        (conv): Conv2d(256, 384, kernel_size=(3, 3), stride=(1, 1), padding=(1, 1))
        (relu): ReLU (inplace)
      )
      (7): BinConv2d (
        (bn): BatchNorm2d(384, eps=0.0001, momentum=0.1, affine=False)
        (conv): Conv2d(384, 384, kernel_size=(3, 3), stride=(1, 1), padding=(1, 1), groups=2)
        (relu): ReLU (inplace)
      )
      (8): BinConv2d (
        (bn): BatchNorm2d(384, eps=0.0001, momentum=0.1, affine=False)
        (conv): Conv2d(384, 256, kernel_size=(3, 3), stride=(1, 1), padding=(1, 1), groups=2)
        (relu): ReLU (inplace)
      )
      (9): MaxPool2d (size=(3, 3), stride=(2, 2), dilation=(1, 1))
    )
  )
  (classifier): Sequential (
    (0): BinConv2d (
      (bn): BatchNorm1d(9216, eps=0.0001, momentum=0.1, affine=False)
      (linear): Linear (9216 -> 4096)
      (relu): ReLU (inplace)
    )
    (1): BinConv2d (
      (dropout): Dropout (p = 0.5)
      (bn): BatchNorm1d(4096, eps=0.0001, momentum=0.1, affine=False)
      (linear): Linear (4096 -> 4096)
      (relu): ReLU (inplace)
    )
    (2): BatchNorm1d(4096, eps=0.001, momentum=0.1, affine=False)
    (3): Dropout (p = 0.5)
    (4): Linear (4096 -> 1000)
  )
)
Learning rate: 0.0001
Epoch: [3][0/5005]	Time 8.192 (8.192)	Data 1.135 (1.135)	Loss 4.5219 (4.5219)	Prec@1 14.062 (14.062)	Prec@5 34.766 (34.766)
Epoch: [3][10/5005]	Time 0.184 (0.908)	Data 0.048 (0.154)	Loss 4.3161 (4.4472)	Prec@1 15.234 (15.412)	Prec@5 37.109 (34.801)
Epoch: [3][20/5005]	Time 0.184 (0.562)	Data 0.049 (0.104)	Loss 4.5153 (4.4867)	Prec@1 16.016 (15.216)	Prec@5 33.984 (34.115)
…
