AlexNet (
  (features): DataParallel (
    (module): Sequential (
      (0): Conv2d(3, 96, kernel_size=(11, 11), stride=(4, 4))
      (1): BatchNorm2d(96, eps=0.0001, momentum=0.1, affine=True)
      (2): ReLU (inplace)
      (3): MaxPool2d (size=(3, 3), stride=(2, 2), dilation=(1, 1))
      (4): BinConv2d (
        (bn): BatchNorm2d(96, eps=0.0001, momentum=0.1, affine=True)
        (conv): Conv2d(96, 256, kernel_size=(5, 5), stride=(1, 1), padding=(2, 2), groups=2)
        (relu): ReLU (inplace)
      )
      (5): MaxPool2d (size=(3, 3), stride=(2, 2), dilation=(1, 1))
      (6): BinConv2d (
        (bn): BatchNorm2d(256, eps=0.0001, momentum=0.1, affine=True)
        (conv): Conv2d(256, 384, kernel_size=(3, 3), stride=(1, 1), padding=(1, 1))
        (relu): ReLU (inplace)
      )
      (7): BinConv2d (
        (bn): BatchNorm2d(384, eps=0.0001, momentum=0.1, affine=True)
        (conv): Conv2d(384, 384, kernel_size=(3, 3), stride=(1, 1), padding=(1, 1), groups=2)
        (relu): ReLU (inplace)
      )
      (8): BinConv2d (
        (bn): BatchNorm2d(384, eps=0.0001, momentum=0.1, affine=True)
        (conv): Conv2d(384, 256, kernel_size=(3, 3), stride=(1, 1), padding=(1, 1), groups=2)
        (relu): ReLU (inplace)
      )
      (9): MaxPool2d (size=(3, 3), stride=(2, 2), dilation=(1, 1))
    )
  )
  (classifier): Sequential (
    (0): BinConv2d (
      (bn): BatchNorm1d(9216, eps=0.0001, momentum=0.1, affine=True)
      (linear): Linear (9216 -> 4096)
      (relu): ReLU (inplace)
    )
    (1): BinConv2d (
      (dropout): Dropout (p = 0.5)
      (bn): BatchNorm1d(4096, eps=0.0001, momentum=0.1, affine=True)
      (linear): Linear (4096 -> 4096)
      (relu): ReLU (inplace)
    )
    (2): BatchNorm1d(4096, eps=0.001, momentum=0.1, affine=True)
    (3): Dropout (p = 0.5)
    (4): Linear (4096 -> 1000)
  )
)
Learning rate: 0.001
Epoch: [0][0/5005]	Time 8.863 (8.863)	Data 1.045 (1.045)	Loss 6.9075 (6.9075)	Prec@1 0.000 (0.000)	Prec@5 0.391 (0.391)
Epoch: [0][10/5005]	Time 0.187 (0.971)	Data 0.045 (0.148)	Loss 6.9277 (6.9100)	Prec@1 0.000 (0.071)	Prec@5 0.000 (0.675)
Epoch: [0][20/5005]	Time 0.177 (0.597)	Data 0.069 (0.104)	Loss 6.9012 (6.9061)	Prec@1 0.391 (0.149)	Prec@5 0.781 (0.688)
…
